bert.pt (torch, 7558 bytes, 2 tensors)

fc.weight f4 [2, 768]
00000000: 6058 423a 216f 1b3d 7926 38bd 7b4a 1ebb
00000010: f045 503c a711 fcbb f39f adbc 9d46 863a
00000020: f0a5 1c3c a126 0f3c 0e56 0abd a3a7 a0ba
00000030: 500f 3a3a c01f e3bc d303 df3c c956 013d
00000040: fee6 aa3c e746 d5bc 1150 3c3b 60c9 8dbb
00000050: 6248 bf3c b68b 623b 6103 85bc f316 c7bc
00000060: 1a00 b83c 2c3e 19bd 4731 d13b 6f9e 493c
00000070: 9463 b4bc 01a9 54bc 3c3f 613b 8b1e 08bd
00000080: 8624 9abc 7cdd e13b ce13 cebc 331e 2fbd
00000090: a9af ddbc cf90 3f3c 7181 4c3c 46ae b73c
000000a0: 6ef8 3b3c 48e8 da3b c9b0 863c ef82 6c3c
000000b0: 23c1 b23b 186b d7bc b8e4 8d3c 75ef 033c
000000c0: 058d 903c 9467 3fbc 2259 51bd 86b2 9d3c
000000d0: 321b b73c 7463 9e3c 1e30 d83c eb99 9cbb
000000e0: 9b34 a43c 47e2 073d 0f16 aabc a679 8c3c
000000f0: 1f9b 38bd adde a3b9 9764 78bb 4889 e5b9
00000100: 3928 5a3c 3ec0 dcbc d6cd 4dbc 7a18 583c
00000110: 3fe2 4d3c 017b 613c 8804 60bc 9317 483d
00000120: 73ac 263c d998 22bc f6e3 d7bc 0804 6e3c
00000130: 7570 bc3c 311e f2bc 4a42 b6bc 67ab 53bb
00000140: 3bf8 863b c689 6bbc 4156 f5bc 58e9 22bd
00000150: aa71 c33c 7624 393d 6534 89bb d10b b93c
00000160: b1c6 a7bc 7a80 c53c 7f05 e73a 16f4 e53a
00000170: b7ef 8f3c 8280 afbc 3a48 a93c ece8 d6bc
00000180: ff53 53bc bf11 583c 65b9 e13c c4d2 a6bb
00000190: 9b0d 04bd 8308 36bc 2c22 3a3d d039 4c3c
000001a0: b7bc cb3b 41e4 a6bb c21b 6cbb d7c6 86bc
000001b0: b473 8abc 60bb 2dbd a5c5 f33b 21de c8bc
000001c0: e59f d73c 0be0 bdbc 4138 aa3b 05a1 b43c
000001d0: bac1 5d3a 04d0 1c3c 3052 dcbc 9928 0bbd
000001e0: ff04 23bd 788e f43b 83b1 adbc 8566 d53c
000001f0: 8e58 e8bc d013 8a3b 809c a03a eff2 8b3c
00000200: 7b5a c13c 9b48 2bbc dec9 923c 9217 7cbc
00000210: 1bc8 bf3a dd1a 833b 9450 c23a b743 c23c
00000220: 90a5 333c 7bd3 3e3c caef 713c 8077 db3c
00000230: 25b1 d6bc 6d15 05bd c790 933c 3d85 113d
00000240: bfa4 c03c 7b39 51bc e7d2 c93c 76ea d33c
00000250: d5d4 7ebc 13c7 c53c bdfd a3bc 8e18 f03b
00000260: 0401 c93b ba75 81bc e379 e23c 622a 193d
00000270: ff4f adbc fe54 07bd f73f f4bb 0d19 fdbb
00000280: d851 e1bc 30c6 92bc 911e 9e3c b7d4 33bd
00000290: b1c1 0bbd 55d0 973c 7c53 1d3d d9fd 253a
000002a0: f4b4 f4bc 412a 48bd a453 c33c b94c 9c3c
000002b0: b6be 7a3b 4782 013d fa47 1bbc 1a9d 12bd
000002c0: 4f82 d73c 9195 9cbc 6a1c a2ba 90e6 faba
000002d0: 6822 84bc a0de e4bb 336b e03c ca7e 143c
000002e0: 1d32 b83a c132 cc3a c8da fa3c 3a38 4e3d
000002f0: c949 d7bc 88a1 9fbc 638d 863c 8fba babb
00000300: 492a 263b f894 5bba 8ab0 5ebb 1980 9bbc
00000310: 7cbe 33bc 8067 2abc bc60 97bb 23bc c7bc
00000320: ea44 81bc 7d51 b2bc fb47 113d 9022 e4bc
00000330: 938d 143d 6186 0e3c db7e f1bc 9b10 1a3d
00000340: 5901 d3bb f5e6 493b d5a0 afbc 69f3 cbbc
00000350: 4130 a6bc 3104 47bc 3036 5d3c 4157 0f3c
00000360: f37c 29bd 1d4a f43c b82b c8bc 9276 d1bc
00000370: 64b9 bebc 0a63 40bd e453 fdbc 489d 4ebc
00000380: 790c feb9 95a1 813b 9170 093d 4a8a 173d
00000390: 6eed 66b9 56c5 3fbb 5cb6 4c3a 2de6 b43c
000003a0: 9a49 d8bc 2392 243d 15cb 22bd f081 1e3b
000003b0: 6a93 3b3d e212 343c 8982 49bc 0312 333c
000003c0: c34f d3bc 799b d6bc 0dd3 b3bc a453 023d
000003d0: 6faa cfbb 4cd2 833c 669a 95bc 9e65 a6bb
000003e0: 68d3 ebbc ae23 40bd 5746 8d3c 397f 2f3d
000003f0: 1f3e b33c 23c2 953c 3047 8fb7 49fb b23c
0.00074136816 0.037947778 -0.044958565 -0.002415328 0.012711987 -0.007692534 -0.021194434 0.0010244433
0.009561047 0.008737237 -0.033773474 -0.0012256991 0.00070976187 -0.0277251 0.027223503 0.031576905
0.020862099 -0.026034785 0.0028734247 -0.0043269843 0.023349945 0.0034568137 -0.016236963 -0.024302935
0.022460986 -0.037412807 0.006384048 0.01230584 -0.022020139 -0.012979747 0.0034369966 -0.033232253
-0.018816244 0.006892858 -0.025155928 -0.04275341 -0.0270613 0.01169224 0.012482033 0.022421967
0.0114728045 0.006680522 0.01644172 0.014435514 0.0054551526 -0.026296183 0.017320976 0.0080526965
0.017645368 -0.01168241 -0.051110394 0.019250166 0.022351835 0.019334532 0.026390132 -0.0047790906
0.020044615 0.03317478 -0.020762471 0.01714785 -0.04506981 -0.0003125569 -0.0037901753 -0.00043780566
0.013315254 -0.026947137 -0.012561282 0.013189429 0.012566148 0.013762237 -0.013672955 0.048850607
0.010172951 -0.009924137 -0.026353817 0.014527328 0.023002842 -0.029555412 -0.022248406 -0.0032298209
0.004118947 -0.0143761095 -0.029948356 -0.039773315 0.02385791 0.045200787 -0.004187154 0.022588642
-0.020480486 0.024109114 0.0017625539 0.0017544057 0.01757036 -0.021423582 0.020664323 -0.026234113
-0.012898444 0.013187825 0.027554223 -0.005091043 -0.032239538 -0.011110428 0.045442745 0.012464955
0.006217565 -0.005093128 -0.0036027287 -0.016452236 -0.016900875 -0.042415023 0.0074393325 -0.024519982
0.02632136 -0.023178121 0.0051946943 0.022049436 0.00084593485 0.009571079 -0.026894659 -0.033974264
-0.039799687 0.0074632727 -0.021202808 0.026049862 -0.028362539 0.0042137876 0.0012253672 0.017083613
0.023602715 -0.010454322 0.017918523 -0.015386479 0.001463178 0.004001005 0.001482504 0.02371393
0.010964766 0.011647101 0.014766643 0.02679038 -0.026207516 -0.032491136 0.018013371 0.035527457
0.023516057 -0.012770052 0.024636699 0.025868636 -0.015553673 0.024142778 -0.020018453 0.007327146
0.0061341543 -0.015803207 0.02764601 0.037393935 -0.02115631 -0.03304004 -0.0074539143 -0.0077239336
-0.027504846 -0.017916769 0.019301685 -0.043904033 -0.034120265 0.018531958 0.038409695 0.0006332077
-0.029871441 -0.04886842 0.023843594 0.019079553 0.0038260645 0.031618383 -0.00947761 -0.035794355
0.026307253 -0.019114288 -0.0012368087 -0.0019142199 -0.016129687 -0.006984547 0.027394867 0.009063432
0.0014053021 0.0015579091 0.030621901 0.05034659 -0.0262803 -0.019486204 0.01642484 -0.005698509
0.0025354794 -0.0008376385 -0.0033979737 -0.01898198 -0.010970708 -0.010400653 -0.004619686 -0.024381703
-0.015779931 -0.021767372 0.035469037 -0.027848512 0.03626783 0.008699031 -0.029479435 0.037613492
-0.0064393696 0.0030807827 -0.021438995 -0.02489634 -0.020286681 -0.012146995 0.013501689 0.00874883
-0.041378926 0.029820496 -0.02443491 -0.025569234 -0.02328176 -0.04696945 -0.030923791 -0.012610741
-0.00048455948 0.0039560297 0.033554617 0.036997117 -0.00022022959 -0.0029261908 0.0007809156 0.022082413
-0.026402283 0.04017843 -0.039744455 0.0024186336 0.045794882 0.01099083 -0.012299188 0.010929587
-0.02579487 -0.026197182 -0.021951223 0.031818047 -0.006337456 0.016091488 -0.0182621 -0.0050780317
-0.02878733 -0.046909027 0.017245455 0.04284594 0.021880208 0.018281048 -1.7080078e-05 0.021848338

fc.bias f4 [2]
00000000: b584 fc3c 6815 9c3c
0.030824998 0.019053176
